…
) # Stage 4 x = self.upsample_4(x, max_indices_2, output_size=input_size_2) x = self.bottleneck_4_1(x) x = self.bottleneck_4_2(x) # Stage 5 x = self.upsample_5(x, max_indices_1, output_size=input_size_1) x = self.bottleneck_5(x) x = self.transposed_conv(x) return x . print(&#39;GPU:&#39;, torch.cuda.get_device_name(0)) device = torch.device(&#39;cuda:0&#39; if torch.cuda.is_available() else &#39;cpu&#39;) enet = Enet(12, encoder_activation=&#39;prelu&#39;, decoder_activation=&#39;relu&#39;) enet = enet.to(device) print(enet) . GPU: Quadro P5000 Enet( (initial_block): InitialBlock( (main_branch): Conv2d(3, 13, kernel_size=(3, 3), stride=(2, 2), padding=(1, 1), bias=False) (secondary_branch): MaxPool2d(kernel_size=3, stride=2, padding=1, dilation=1, ceil_mode=False) (batch_norm): BatchNorm2d(16, eps=1e-05, momentum=0.1, affine=True, track_running_stats=True) (activation): Activation( (act): PReLU(num_parameters=1) ) ) (down_bottleneck_1): DownsampleBottleneckBlock( (main_conv_block_1): Sequential( (0): Conv2d(16, 4, kernel_size=(2, 2), stride=(2, 2), bias=False) (1): BatchNorm2d(4, eps=1e-05, momentum=0.1, affine=True, track_running_stats=True) (2): Activation( (act): PReLU(num_parameters=1) ) ) (main_conv_block_2): Sequential( (0): Conv2d(4, 4, kernel_size=(3, 3), stride=(1, 1), padding=(1, 1), bias=False) (1): BatchNorm2d(4, eps=1e-05, momentum=0.1, affine=True, track_running_stats=True) (2): Activation( (act): PReLU(num_parameters=1) ) ) (main_conv_block_3): Sequential( (0): Conv2d(4, 64, kernel_size=(1, 1), stride=(1, 1), bias=False) (1): BatchNorm2d(64, eps=1e-05, momentum=0.1, affine=True, track_running_stats=True) (2): Activation( (act): PReLU(num_parameters=1) ) ) (secondary_maxpool): MaxPool2d(kernel_size=2, stride=2, padding=0, dilation=1, ceil_mode=False) (dropout): Dropout2d(p=0.01, inplace=False) (activation): Activation( (act): PReLU(num_parameters=1) ) ) (bottleneck_1_1): RegularBottleneckBlock( (main_conv_block_1): Sequential( (0): Conv2d(64, 16, kernel_size=(1, 1), stride=(1, 1), bias=False) (1): BatchNorm2d(16, eps=1e-05, momentum=0.1, affine=True, track_running_stats=True) (2): Activation( (act): PReLU(num_parameters=1) ) ) (main_conv_block_2): Sequential( (0): Conv2d(16, 16, kernel_size=(3, 3), stride=(1, 1), padding=(1, 1), bias=False) (1): BatchNorm2d(16, eps=1e-05, momentum=0.1, affine=True, track_running_stats=True) (2): Activation( (act): PReLU(num_parameters=1) ) ) (main_conv_block_3): Sequential( (0): Conv2d(16, 64, kernel_size=(1, 1), stride=(1, 1), bias=False) (1): BatchNorm2d(64, eps=1e-05, momentum=0.1, affine=True, track_running_stats=True) (2): Activation( (act): PReLU(num_parameters=1) ) ) (dropout): Dropout2d(p=0.01, inplace=False) (activation): Activation( (act): PReLU(num_parameters=1) ) ) (bottleneck_1_2): RegularBottleneckBlock( (main_conv_block_1): Sequential( (0): Conv2d(64, 16, kernel_size=(1, 1), stride=(1, 1), bias=False) (1): BatchNorm2d(16, eps=1e-05, momentum=0.1, affine=True, track_running_stats=True) (2): Activation( (act): PReLU(num_parameters=1) ) ) (main_conv_block_2): Sequential( (0): Conv2d(16, 16, kernel_size=(3, 3), stride=(1, 1), padding=(1, 1), bias=False) (1): BatchNorm2d(16, eps=1e-05, momentum=0.1, affine=True, track_running_stats=True) (2): Activation( (act): PReLU(num_parameters=1) ) ) (main_conv_block_3): Sequential( (0): Conv2d(16, 64, kernel_size=(1, 1), stride=(1, 1), bias=False) (1): BatchNorm2d(64, eps=1e-05, momentum=0.1, affine=True, track_running_stats=True) (2): Activation( (act): PReLU(num_parameters=1) ) ) (dropout): Dropout2d(p=0.01, inplace=False) (activation): Activation( (act): PReLU(num_parameters=1) ) ) (bottleneck_1_3): RegularBottleneckBlock( (main_conv_block_1): Sequential( (0): Conv2d(64, 16, kernel_size=(1, 1), stride=(1, 1), bias=False) (1): BatchNorm2d(16, eps=1e-05, momentum=0.1, affine=True, track_running_stats=True) (2): Activation( (act): PReLU(num_parameters=1) ) ) (main_conv_block_2): Sequential( (0): Conv2d(16, 16, kernel_size=(3, 3), stride=(1, 1), padding=(1, 1), bias=False) (1): BatchNorm2d(16, eps=1e-05, momentum=0.1, affine=True, track_running_stats=True) (2): Activation( (act): PReLU(num_parameters=1) ) ) (main_conv_block_3): Sequential( (0): Conv2d(16, 64, kernel_size=(1, 1), stride=(1, 1), bias=False) (1): BatchNorm2d(64, eps=1e-05, momentum=0.1, affine=True, track_running_stats=True) (2): Activation( (act): PReLU(num_parameters=1) ) ) (dropout): Dropout2d(p=0.01, inplace=False) (activation): Activation( (act): PReLU(num_parameters=1) ) ) (bottleneck_1_4): RegularBottleneckBlock( (main_conv_block_1): Sequential( (0): Conv2d(64, 16, kernel_size=(1, 1), stride=(1, 1), bias=False) (1): BatchNorm2d(16, eps=1e-05, momentum=0.1, affine=True, track_running_stats=True) (2): Activation( (act): PReLU(num_parameters=1) ) ) (main_conv_block_2): Sequential( (0): Conv2d(16, 16, kernel_size=(3, 3), stride=(1, 1), padding=(1, 1), bias=False) (1): BatchNorm2d(16, eps=1e-05, momentum=0.1, affine=True, track_running_stats=True) (2): Activation( (act): PReLU(num_parameters=1) ) ) (main_conv_block_3): Sequential( (0): Conv2d(16, 64, kernel_size=(1, 1), stride=(1, 1), bias=False) (1): BatchNorm2d(64, eps=1e-05, momentum=0.1, affine=True, track_running_stats=True) (2): Activation( (act): PReLU(num_parameters=1) ) ) (dropout): Dropout2d(p=0.01, inplace=False) (activation): Activation( (act): PReLU(num_parameters=1) ) ) (down_bottleneck_2): DownsampleBottleneckBlock( (main_conv_block_1): Sequential( (0): Conv2d(64, 16, kernel_size=(2, 2), stride=(2, 2), bias=False) (1): BatchNorm2d(16, eps=1e-05, momentum=0.1, affine=True, track_running_stats=True) (2): Activation( (act): PReLU(num_parameters=1) ) ) (main_conv_block_2): Sequential( (0): Conv2d(16, 16, kernel_size=(3, 3), stride=(1, 1), padding=(1, 1), bias=False) (1): BatchNorm2d(16, eps=1e-05, momentum=0.1, affine=True, track_running_stats=True) (2): Activation( (act): PReLU(num_parameters=1) ) ) (main_conv_block_3): Sequential( (0): Conv2d(16, 128, kernel_size=(1, 1), stride=(1, 1), bias=False) (1): BatchNorm2d(128, eps=1e-05, momentum=0.1, affine=True, track_running_stats=True) (2): Activation( (act): PReLU(num_parameters=1) ) ) (secondary_maxpool): MaxPool2d(kernel_size=2, stride=2, padding=0, dilation=1, ceil_mode=False) (dropout): Dropout2d(p=0.1, inplace=False) (activation): Activation( (act): PReLU(num_parameters=1) ) ) (bottleneck_2_1): RegularBottleneckBlock( (main_conv_block_1): Sequential( (0): Conv2d(128, 32, kernel_size=(1, 1), stride=(1, 1), bias=False) (1): BatchNorm2d(32, eps=1e-05, momentum=0.1, affine=True, track_running_stats=True) (2): Activation( (act): PReLU(num_parameters=1) ) ) (main_conv_block_2): Sequential( (0): Conv2d(32, 32, kernel_size=(3, 3), stride=(1, 1), padding=(1, 1), bias=False) (1): BatchNorm2d(32, eps=1e-05, momentum=0.1, affine=True, track_running_stats=True) (2): Activation( (act): PReLU(num_parameters=1) ) ) (main_conv_block_3): Sequential( (0): Conv2d(32, 128, kernel_size=(1, 1), stride=(1, 1), bias=False) (1): BatchNorm2d(128, eps=1e-05, momentum=0.1, affine=True, track_running_stats=True) (2): Activation( (act): PReLU(num_parameters=1) ) ) (dropout): Dropout2d(p=0.1, inplace=False) (activation): Activation( (act): PReLU(num_parameters=1) ) ) (bottleneck_2_2): RegularBottleneckBlock( (main_conv_block_1): Sequential( (0): Conv2d(128, 32, kernel_size=(1, 1), stride=(1, 1), bias=False) (1): BatchNorm2d(32, eps=1e-05, momentum=0.1, affine=True, track_running_stats=True) (2): Activation( (act): PReLU(num_parameters=1) ) ) (main_conv_block_2): Sequential( (0): Conv2d(32, 32, kernel_size=(3, 3), stride=(1, 1), padding=(2, 2), dilation=(2, 2), bias=False) (1): BatchNorm2d(32, eps=1e-05, momentum=0.1, affine=True, track_running_stats=True) (2): Activation( (act): PReLU(num_parameters=1) ) ) (main_conv_block_3): Sequential( (0): Conv2d(32, 128, kernel_size=(1, 1), stride=(1, 1), bias=False) (1): BatchNorm2d(128, eps=1e-05, momentum=0.1, affine=True, track_running_stats=True) (2): Activation( (act): PReLU(num_parameters=1) ) ) (dropout): Dropout2d(p=0.1, inplace=False) (activation): Activation( (act): PReLU(num_parameters=1) ) ) (bottleneck_2_3): RegularBottleneckBlock( (main_conv_block_1): Sequential( (0): Conv2d(128, 32, kernel_size=(1, 1), stride=(1, 1), bias=False) (1): BatchNorm2d(32, eps=1e-05, momentum=0.1, affine=True, track_running_stats=True) (2): Activation( (act): PReLU(num_parameters=1) ) ) (main_conv_block_2): Sequential( (0): Conv2d(32, 32, kernel_size=(5, 1), stride=(1, 1), padding=(2, 0), bias=False) (1): BatchNorm2d(32, eps=1e-05, momentum=0.1, affine=True, track_running_stats=True) (2): Activation( (act): PReLU(num_parameters=1) ) (3): Conv2d(32, 32, kernel_size=(1, 5), stride=(1, 1), padding=(0, 2), bias=False) (4): BatchNorm2d(32, eps=1e-05, momentum=0.1, affine=True, track_running_stats=True) (5): Activation( (act): PReLU(num_parameters=1) ) ) (main_conv_block_3): Sequential( (0): Conv2d(32, 128, kernel_size=(1, 1), stride=(1, 1), bias=False) (1): BatchNorm2d(128, eps=1e-05, momentum=0.1, affine=True, track_running_stats=True) (2): Activation( (act): PReLU(num_parameters=1) ) ) (dropout): Dropout2d(p=0.1, inplace=False) (activation): Activation( (act): PReLU(num_parameters=1) ) ) (bottleneck_2_4): RegularBottleneckBlock( (main_conv_block_1): Sequential( (0): Conv2d(128, 32, kernel_size=(1, 1), stride=(1, 1), bias=False) (1): BatchNorm2d(32, eps=1e-05, momentum=0.1, affine=True, track_running_stats=True) (2): Activation( (act): PReLU(num_parameters=1) ) ) (main_conv_block_2): Sequential( (0): Conv2d(32, 32, kernel_size=(3, 3), stride=(1, 1), padding=(4, 4), dilation=(4, 4), bias=False) (1): BatchNorm2d(32, eps=1e-05, momentum=0.1, affine=True, track_running_stats=True) (2): Activation( (act): PReLU(num_parameters=1) ) ) (main_conv_block_3): Sequential( (0): Conv2d(32, 128, kernel_size=(1, 1), stride=(1, 1), bias=False) (1): BatchNorm2d(128, eps=1e-05, momentum=0.1, affine=True, track_running_stats=True) (2): Activation( (act): PReLU(num_parameters=1) ) ) (dropout): Dropout2d(p=0.1, inplace=False) (activation): Activation( (act): PReLU(num_parameters=1) ) ) (bottleneck_2_5): RegularBottleneckBlock( (main_conv_block_1): Sequential( (0): Conv2d(128, 32, kernel_size=(1, 1), stride=(1, 1), bias=False) (1): BatchNorm2d(32, eps=1e-05, momentum=0.1, affine=True, track_running_stats=True) (2): Activation( (act): PReLU(num_parameters=1) ) ) (main_conv_block_2): Sequential( (0): Conv2d(32, 32, kernel_size=(3, 3), stride=(1, 1), padding=(1, 1), bias=False) (1): BatchNorm2d(32, eps=1e-05, momentum=0.1, affine=True, track_running_stats=True) (2): Activation( (act): PReLU(num_parameters=1) ) ) (main_conv_block_3): Sequential( (0): Conv2d(32, 128, kernel_size=(1, 1), stride=(1, 1), bias=False) (1): BatchNorm2d(128, eps=1e-05, momentum=0.1, affine=True, track_running_stats=True) (2): Activation( (act): PReLU(num_parameters=1) ) ) (dropout): Dropout2d(p=0.1, inplace=False) (activation): Activation( (act): PReLU(num_parameters=1) ) ) (bottleneck_2_6): RegularBottleneckBlock( (main_conv_block_1): Sequential( (0): Conv2d(128, 32, kernel_size=(1, 1), stride=(1, 1), bias=False) (1): BatchNorm2d(32, eps=1e-05, momentum=0.1, affine=True, track_running_stats=True) (2): Activation( (act): PReLU(num_parameters=1) ) ) (main_conv_block_2): Sequential( (0): Conv2d(32, 32, kernel_size=(3, 3), stride=(1, 1), padding=(8, 8), dilation=(8, 8), bias=False) (1): BatchNorm2d(32, eps=1e-05, momentum=0.1, affine=True, track_running_stats=True) (2): Activation( (act): PReLU(num_parameters=1) ) ) (main_conv_block_3): Sequential( (0): Conv2d(32, 128, kernel_size=(1, 1), stride=(1, 1), bias=False) (1): BatchNorm2d(128, eps=1e-05, momentum=0.1, affine=True, track_running_stats=True) (2): Activation( (act): PReLU(num_parameters=1) ) ) (dropout): Dropout2d(p=0.1, inplace=False) (activation): Activation( (act): PReLU(num_parameters=1) ) ) (bottleneck_2_7): RegularBottleneckBlock( (main_conv_block_1): Sequential( (0): Conv2d(128, 32, kernel_size=(1, 1), stride=(1, 1), bias=False) (1): BatchNorm2d(32, eps=1e-05, momentum=0.1, affine=True, track_running_stats=True) (2): Activation( (act): PReLU(num_parameters=1) ) ) (main_conv_block_2): Sequential( (0): Conv2d(32, 32, kernel_size=(5, 1), stride=(1, 1), padding=(2, 0), bias=False) (1): BatchNorm2d(32, eps=1e-05, momentum=0.1, affine=True, track_running_stats=True) (2): Activation( (act): PReLU(num_parameters=1) ) (3): Conv2d(32, 32, kernel_size=(1, 5), stride=(1, 1), padding=(0, 2), bias=False) (4): BatchNorm2d(32, eps=1e-05, momentum=0.1, affine=True, track_running_stats=True) (5): Activation( (act): PReLU(num_parameters=1) ) ) (main_conv_block_3): Sequential( (0): Conv2d(32, 128, kernel_size=(1, 1), stride=(1, 1), bias=False) (1): BatchNorm2d(128, eps=1e-05, momentum=0.1, affine=True, track_running_stats=True) (2): Activation( (act): PReLU(num_parameters=1) ) ) (dropout): Dropout2d(p=0.1, inplace=False) (activation): Activation( (act): PReLU(num_parameters=1) ) ) (bottleneck_2_8): RegularBottleneckBlock( (main_conv_block_1): Sequential( (0): Conv2d(128, 32, kernel_size=(1, 1), stride=(1, 1), bias=False) (1): BatchNorm2d(32, eps=1e-05, momentum=0.1, affine=True, track_running_stats=True) (2): Activation( (act): PReLU(num_parameters=1) ) ) (main_conv_block_2): Sequential( (0): Conv2d(32, 32, kernel_size=(3, 3), stride=(1, 1), padding=(16, 16), dilation=(16, 16), bias=False) (1): BatchNorm2d(32, eps=1e-05, momentum=0.1, affine=True, track_running_stats=True) (2): Activation( (act): PReLU(num_parameters=1) ) ) (main_conv_block_3): Sequential( (0): Conv2d(32, 128, kernel_size=(1, 1), stride=(1, 1), bias=False) (1): BatchNorm2d(128, eps=1e-05, momentum=0.1, affine=True, track_running_stats=True) (2): Activation( (act): PReLU(num_parameters=1) ) ) (dropout): Dropout2d(p=0.1, inplace=False) (activation): Activation( (act): PReLU(num_parameters=1) ) ) (regular_bottleneck_3): RegularBottleneckBlock( (main_conv_block_1): Sequential( (0): Conv2d(128, 32, kernel_size=(1, 1), stride=(1, 1), bias=False) (1): BatchNorm2d(32, eps=1e-05, momentum=0.1, affine=True, track_running_stats=True) (2): Activation( (act): PReLU(num_parameters=1) ) ) (main_conv_block_2): Sequential( (0): Conv2d(32, 32, kernel_size=(3, 3), stride=(1, 1), padding=(1, 1), bias=False) (1): BatchNorm2d(32, eps=1e-05, momentum=0.1, affine=True, track_running_stats=True) (2): Activation( (act): PReLU(num_parameters=1) ) ) (main_conv_block_3): Sequential( (0): Conv2d(32, 128, kernel_size=(1, 1), stride=(1, 1), bias=False) (1): BatchNorm2d(128, eps=1e-05, momentum=0.1, affine=True, track_running_stats=True) (2): Activation( (act): PReLU(num_parameters=1) ) ) (dropout): Dropout2d(p=0.1, inplace=False) (activation): Activation( (act): PReLU(num_parameters=1) ) ) (bottleneck_3_1): RegularBottleneckBlock( (main_conv_block_1): Sequential( (0): Conv2d(128, 32, kernel_size=(1, 1), stride=(1, 1), bias=False) (1): BatchNorm2d(32, eps=1e-05, momentum=0.1, affine=True, track_running_stats=True) (2): Activation( (act): PReLU(num_parameters=1) ) ) (main_conv_block_2): Sequential( (0): Conv2d(32, 32, kernel_size=(3, 3), stride=(1, 1), padding=(2, 2), dilation=(2, 2), bias=False) (1): BatchNorm2d(32, eps=1e-05, momentum=0.1, affine=True, track_running_stats=True) (2): Activation( (act): PReLU(num_parameters=1) ) ) (main_conv_block_3): Sequential( (0): Conv2d(32, 128, kernel_size=(1, 1), stride=(1, 1), bias=False) (1): BatchNorm2d(128, eps=1e-05, momentum=0.1, affine=True, track_running_stats=True) (2): Activation( (act): PReLU(num_parameters=1) ) ) (dropout): Dropout2d(p=0.1, inplace=False) (activation): Activation( (act): PReLU(num_parameters=1) ) ) (bottleneck_3_2): RegularBottleneckBlock( (main_conv_block_1): Sequential( (0): Conv2d(128, 32, kernel_size=(1, 1), stride=(1, 1), bias=False) (1): BatchNorm2d(32, eps=1e-05, momentum=0.1, affine=True, track_running_stats=True) (2): Activation( (act): PReLU(num_parameters=1) ) ) (main_conv_block_2): Sequential( (0): Conv2d(32, 32, kernel_size=(5, 1), stride=(1, 1), padding=(2, 0), bias=False) (1): BatchNorm2d(32, eps=1e-05, momentum=0.1, affine=True, track_running_stats=True) (2): Activation( (act): PReLU(num_parameters=1) ) (3): Conv2d(32, 32, kernel_size=(1, 5), stride=(1, 1), padding=(0, 2), bias=False) (4): BatchNorm2d(32, eps=1e-05, momentum=0.1, affine=True, track_running_stats=True) (5): Activation( (act): PReLU(num_parameters=1) ) ) (main_conv_block_3): Sequential( (0): Conv2d(32, 128, kernel_size=(1, 1), stride=(1, 1), bias=False) (1): BatchNorm2d(128, eps=1e-05, momentum=0.1, affine=True, track_running_stats=True) (2): Activation( (act): PReLU(num_parameters=1) ) ) (dropout): Dropout2d(p=0.1, inplace=False) (activation): Activation( (act): PReLU(num_parameters=1) ) ) (bottleneck_3_3): RegularBottleneckBlock( (main_conv_block_1): Sequential( (0): Conv2d(128, 32, kernel_size=(1, 1), stride=(1, 1), bias=False) (1): BatchNorm2d(32, eps=1e-05, momentum=0.1, affine=True, track_running_stats=True) (2): Activation( (act): PReLU(num_parameters=1) ) ) (main_conv_block_2): Sequential( (0): Conv2d(32, 32, kernel_size=(3, 3), stride=(1, 1), padding=(4, 4), dilation=(4, 4), bias=False) (1): BatchNorm2d(32, eps=1e-05, momentum=0.1, affine=True, track_running_stats=True) (2): Activation( (act): PReLU(num_parameters=1) ) ) (main_conv_block_3): Sequential( (0): Conv2d(32, 128, kernel_size=(1, 1), stride=(1, 1), bias=False) (1): BatchNorm2d(128, eps=1e-05, momentum=0.1, affine=True, track_running_stats=True) (2): Activation( (act): PReLU(num_parameters=1) ) ) (dropout): Dropout2d(p=0.1, inplace=False) (activation): Activation( (act): PReLU(num_parameters=1) ) ) (bottleneck_3_4): RegularBottleneckBlock( (main_conv_block_1): Sequential( (0): Conv2d(128, 32, kernel_size=(1, 1), stride=(1, 1), bias=False) (1): BatchNorm2d(32, eps=1e-05, momentum=0.1, affine=True, track_running_stats=True) (2): Activation( (act): PReLU(num_parameters=1) ) ) (main_conv_block_2): Sequential( (0): Conv2d(32, 32, kernel_size=(3, 3), stride=(1, 1), padding=(1, 1), bias=False) (1): BatchNorm2d(32, eps=1e-05, momentum=0.1, affine=True, track_running_stats=True) (2): Activation( (act): PReLU(num_parameters=1) ) ) (main_conv_block_3): Sequential( (0): Conv2d(32, 128, kernel_size=(1, 1), stride=(1, 1), bias=False) (1): BatchNorm2d(128, eps=1e-05, momentum=0.1, affine=True, track_running_stats=True) (2): Activation( (act): PReLU(num_parameters=1) ) ) (dropout): Dropout2d(p=0.1, inplace=False) (activation): Activation( (act): PReLU(num_parameters=1) ) ) (bottleneck_3_5): RegularBottleneckBlock( (main_conv_block_1): Sequential( (0): Conv2d(128, 32, kernel_size=(1, 1), stride=(1, 1), bias=False) (1): BatchNorm2d(32, eps=1e-05, momentum=0.1, affine=True, track_running_stats=True) (2): Activation( (act): PReLU(num_parameters=1) ) ) (main_conv_block_2): Sequential( (0): Conv2d(32, 32, kernel_size=(3, 3), stride=(1, 1), padding=(8, 8), dilation=(8, 8), bias=False) (1): BatchNorm2d(32, eps=1e-05, momentum=0.1, affine=True, track_running_stats=True) (2): Activation( (act): PReLU(num_parameters=1) ) ) (main_conv_block_3): Sequential( (0): Conv2d(32, 128, kernel_size=(1, 1), stride=(1, 1), bias=False) (1): BatchNorm2d(128, eps=1e-05, momentum=0.1, affine=True, track_running_stats=True) (2): Activation( (act): PReLU(num_parameters=1) ) ) (dropout): Dropout2d(p=0.1, inplace=False) (activation): Activation( (act): PReLU(num_parameters=1) ) ) (bottleneck_3_6): RegularBottleneckBlock( (main_conv_block_1): Sequential( (0): Conv2d(128, 32, kernel_size=(1, 1), stride=(1, 1), bias=False) (1): BatchNorm2d(32, eps=1e-05, momentum=0.1, affine=True, track_running_stats=True) (2): Activation( (act): PReLU(num_parameters=1) ) ) (main_conv_block_2): Sequential( (0): Conv2d(32, 32, kernel_size=(5, 1), stride=(1, 1), padding=(2, 0), bias=False) (1): BatchNorm2d(32, eps=1e-05, momentum=0.1, affine=True, track_running_stats=True) (2): Activation( (act): PReLU(num_parameters=1) ) (3): Conv2d(32, 32, kernel_size=(1, 5), stride=(1, 1), padding=(0, 2), bias=False) (4): BatchNorm2d(32, eps=1e-05, momentum=0.1, affine=True, track_running_stats=True) (5): Activation( (act): PReLU(num_parameters=1) ) ) (main_conv_block_3): Sequential( (0): Conv2d(32, 128, kernel_size=(1, 1), stride=(1, 1), bias=False) (1): BatchNorm2d(128, eps=1e-05, momentum=0.1, affine=True, track_running_stats=True) (2): Activation( (act): PReLU(num_parameters=1) ) ) (dropout): Dropout2d(p=0.1, inplace=False) (activation): Activation( (act): PReLU(num_parameters=1) ) ) (bottleneck_3_7): RegularBottleneckBlock( (main_conv_block_1): Sequential( (0): Conv2d(128, 32, kernel_size=(1, 1), stride=(1, 1), bias=False) (1): BatchNorm2d(32, eps=1e-05, momentum=0.1, affine=True, track_running_stats=True) (2): Activation( (act): PReLU(num_parameters=1) ) ) (main_conv_block_2): Sequential( (0): Conv2d(32, 32, kernel_size=(3, 3), stride=(1, 1), padding=(16, 16), dilation=(16, 16), bias=False) (1): BatchNorm2d(32, eps=1e-05, momentum=0.1, affine=True, track_running_stats=True) (2): Activation( (act): PReLU(num_parameters=1) ) ) (main_conv_block_3): Sequential( (0): Conv2d(32, 128, kernel_size=(1, 1), stride=(1, 1), bias=False) (1): BatchNorm2d(128, eps=1e-05, momentum=0.1, affine=True, track_running_stats=True) (2): Activation( (act): PReLU(num_parameters=1) ) ) (dropout): Dropout2d(p=0.1, inplace=False) (activation): Activation( (act): PReLU(num_parameters=1) ) ) (upsample_4): UpsampleBottleneckBlock( (main_branch_conv_1): Sequential( (0): Conv2d(128, 32, kernel_size=(1, 1), stride=(1, 1), bias=False) (1): BatchNorm2d(32, eps=1e-05, momentum=0.1, affine=True, track_running_stats=True) (2): Activation( (act): ReLU() ) ) (main_branch_transpose_conv_2): ConvTranspose2d(32, 32, kernel_size=(2, 2), stride=(2, 2), bias=False) (main_branch_bn_2): BatchNorm2d(32, eps=1e-05, momentum=0.1, affine=True, track_running_stats=True) (main_branch_act_2): Activation( (act): ReLU() ) (main_branch_conv_3): Sequential( (0): Conv2d(32, 64, kernel_size=(1, 1), stride=(1, 1), bias=False) (1): BatchNorm2d(64, eps=1e-05, momentum=0.1, affine=True, track_running_stats=True) (2): Activation( (act): ReLU() ) ) (secondary_conv): Sequential( (0): Conv2d(128, 64, kernel_size=(1, 1), stride=(1, 1), bias=False) (1): BatchNorm2d(64, eps=1e-05, momentum=0.1, affine=True, track_running_stats=True) ) (secondary_unpool): MaxUnpool2d(kernel_size=(2, 2), stride=(2, 2), padding=(0, 0)) (dropout): Dropout2d(p=0.1, inplace=False) (activation): Activation( (act): ReLU() ) ) (bottleneck_4_1): RegularBottleneckBlock( (main_conv_block_1): Sequential( (0): Conv2d(64, 16, kernel_size=(1, 1), stride=(1, 1), bias=False) (1): BatchNorm2d(16, eps=1e-05, momentum=0.1, affine=True, track_running_stats=True) (2): Activation( (act): ReLU() ) ) (main_conv_block_2): Sequential( (0): Conv2d(16, 16, kernel_size=(3, 3), stride=(1, 1), padding=(1, 1), bias=False) (1): BatchNorm2d(16, eps=1e-05, momentum=0.1, affine=True, track_running_stats=True) (2): Activation( (act): ReLU() ) ) (main_conv_block_3): Sequential( (0): Conv2d(16, 64, kernel_size=(1, 1), stride=(1, 1), bias=False) (1): BatchNorm2d(64, eps=1e-05, momentum=0.1, affine=True, track_running_stats=True) (2): Activation( (act): ReLU() ) ) (dropout): Dropout2d(p=0.1, inplace=False) (activation): Activation( (act): ReLU() ) ) (bottleneck_4_2): RegularBottleneckBlock( (main_conv_block_1): Sequential( (0): Conv2d(64, 16, kernel_size=(1, 1), stride=(1, 1), bias=False) (1): BatchNorm2d(16, eps=1e-05, momentum=0.1, affine=True, track_running_stats=True) (2): Activation( (act): ReLU() ) ) (main_conv_block_2): Sequential( (0): Conv2d(16, 16, kernel_size=(3, 3), stride=(1, 1), padding=(1, 1), bias=False) (1): BatchNorm2d(16, eps=1e-05, momentum=0.1, affine=True, track_running_stats=True) (2): Activation( (act): ReLU() ) ) (main_conv_block_3): Sequential( (0): Conv2d(16, 64, kernel_size=(1, 1), stride=(1, 1), bias=False) (1): BatchNorm2d(64, eps=1e-05, momentum=0.1, affine=True, track_running_stats=True) (2): Activation( (act): ReLU() ) ) (dropout): Dropout2d(p=0.1, inplace=False) (activation): Activation( (act): ReLU() ) ) (upsample_5): UpsampleBottleneckBlock( (main_branch_conv_1): Sequential( (0): Conv2d(64, 16, kernel_size=(1, 1), stride=(1, 1), bias=False) (1): BatchNorm2d(16, eps=1e-05, momentum=0.1, affine=True, track_running_stats=True) (2): Activation( (act): ReLU() ) ) (main_branch_transpose_conv_2): ConvTranspose2d(16, 16, kernel_size=(2, 2), stride=(2, 2), bias=False) (main_branch_bn_2): BatchNorm2d(16, eps=1e-05, momentum=0.1, affine=True, track_running_stats=True) (main_branch_act_2): Activation( (act): ReLU() ) (main_branch_conv_3): Sequential( (0): Conv2d(16, 16, kernel_size=(1, 1), stride=(1, 1), bias=False) (1): BatchNorm2d(16, eps=1e-05, momentum=0.1, affine=True, track_running_stats=True) (2): Activation( (act): ReLU() ) ) (secondary_conv): Sequential( (0): Conv2d(64, 16, kernel_size=(1, 1), stride=(1, 1), bias=False) (1): BatchNorm2d(16, eps=1e-05, momentum=0.1, affine=True, track_running_stats=True) ) (secondary_unpool): MaxUnpool2d(kernel_size=(2, 2), stride=(2, 2), padding=(0, 0)) (dropout): Dropout2d(p=0.1, inplace=False) (activation): Activation( (act): ReLU() ) ) (bottleneck_5): RegularBottleneckBlock( (main_conv_block_1): Sequential( (0): Conv2d(16, 4, kernel_size=(1, 1), stride=(1, 1), bias=False) (1): BatchNorm2d(4, eps=1e-05, momentum=0.1, affine=True, track_running_stats=True) (2): Activation( (act): ReLU() ) ) (main_conv_block_2): Sequential( (0): Conv2d(4, 4, kernel_size=(3, 3), stride=(1, 1), padding=(1, 1), bias=False) (1): BatchNorm2d(4, eps=1e-05, momentum=0.1, affine=True, track_running_stats=True) (2): Activation( (act): ReLU() ) ) (main_conv_block_3): Sequential( (0): Conv2d(4, 16, kernel_size=(1, 1), stride=(1, 1), bias=False) (1): BatchNorm2d(16, eps=1e-05, momentum=0.1, affine=True, track_running_stats=True) (2): Activation( (act): ReLU() ) ) (dropout): Dropout2d(p=0.1, inplace=False) (activation): Activation( (act): ReLU() ) ) (transposed_conv): ConvTranspose2d(16, 12, kernel_size=(3, 3), stride=(2, 2), padding=(1, 1), output_padding=(1, 1), bias=False) ) . Pipeline for Camvid Dataset . Download Dataset . !mkdir camvid %cd camvid !wget https://www.dropbox.com/s/ej1gx48bxqbtwd2/CamVid.zip?dl=0 -O CamVid.zip !unzip -qq CamVid.zip !rm CamVid.zip %cd .. . /notebooks/camvid --2019-12-22 17:08:27-- https://www.dropbox.com/s/ej1gx48bxqbtwd2/CamVid.zip?dl=0 Reso
…
